models/policy_lstm_1.pt (torch, 145745 bytes, 10 tensors)

hidden_state f4 [1, 1, 64]
0	0x00000000	0.0
1	0x00000000	0.0
2	0x00000000	0.0
3	0x00000000	0.0
4	0x00000000	0.0
5	0x00000000	0.0
6	0x00000000	0.0
7	0x00000000	0.0
8	0x00000000	0.0
9	0x00000000	0.0
10	0x00000000	0.0
11	0x00000000	0.0
12	0x00000000	0.0
13	0x00000000	0.0
14	0x00000000	0.0
15	0x00000000	0.0
16	0x00000000	0.0
17	0x00000000	0.0
18	0x00000000	0.0
19	0x00000000	0.0
20	0x00000000	0.0
21	0x00000000	0.0
22	0x00000000	0.0
23	0x00000000	0.0
24	0x00000000	0.0
25	0x00000000	0.0
26	0x00000000	0.0
27	0x00000000	0.0
28	0x00000000	0.0
29	0x00000000	0.0
30	0x00000000	0.0
31	0x00000000	0.0
32	0x00000000	0.0
33	0x00000000	0.0
34	0x00000000	0.0
35	0x00000000	0.0
36	0x00000000	0.0
37	0x00000000	0.0
38	0x00000000	0.0
39	0x00000000	0.0
40	0x00000000	0.0
41	0x00000000	0.0
42	0x00000000	0.0
43	0x00000000	0.0
44	0x00000000	0.0
45	0x00000000	0.0
46	0x00000000	0.0
47	0x00000000	0.0
48	0x00000000	0.0
49	0x00000000	0.0
50	0x00000000	0.0
51	0x00000000	0.0
52	0x00000000	0.0
53	0x00000000	0.0
54	0x00000000	0.0
55	0x00000000	0.0
56	0x00000000	0.0
57	0x00000000	0.0
58	0x00000000	0.0
59	0x00000000	0.0
60	0x00000000	0.0
61	0x00000000	0.0
62	0x00000000	0.0
63	0x00000000	0.0

cell_state f4 [1, 1, 64]
0	0x00000000	0.0
1	0x00000000	0.0
2	0x00000000	0.0
3	0x00000000	0.0
4	0x00000000	0.0
5	0x00000000	0.0
6	0x00000000	0.0
7	0x00000000	0.0
8	0x00000000	0.0
9	0x00000000	0.0
10	0x00000000	0.0
11	0x00000000	0.0
12	0x00000000	0.0
13	0x00000000	0.0
14	0x00000000	0.0
15	0x00000000	0.0
16	0x00000000	0.0
17	0x00000000	0.0
18	0x00000000	0.0
19	0x00000000	0.0
20	0x00000000	0.0
21	0x00000000	0.0
22	0x00000000	0.0
23	0x00000000	0.0
24	0x00000000	0.0
25	0x00000000	0.0
26	0x00000000	0.0
27	0x00000000	0.0
28	0x00000000	0.0
29	0x00000000	0.0
30	0x00000000	0.0
31	0x00000000	0.0
32	0x00000000	0.0
33	0x00000000	0.0
34	0x00000000	0.0
35	0x00000000	0.0
36	0x00000000	0.0
37	0x00000000	0.0
38	0x00000000	0.0
39	0x00000000	0.0
40	0x00000000	0.0
41	0x00000000	0.0
42	0x00000000	0.0
43	0x00000000	0.0
44	0x00000000	0.0
45	0x00000000	0.0
46	0x00000000	0.0
47	0x00000000	0.0
48	0x00000000	0.0
49	0x00000000	0.0
50	0x00000000	0.0
51	0x00000000	0.0
52	0x00000000	0.0
53	0x00000000	0.0
54	0x00000000	0.0
55	0x00000000	0.0
56	0x00000000	0.0
57	0x00000000	0.0
58	0x00000000	0.0
59	0x00000000	0.0
60	0x00000000	0.0
61	0x00000000	0.0
62	0x00000000	0.0
63	0x00000000	0.0

weight f4 [32, 64]
0	0x3d2b0003	0.041748058
1	0xbefcea64	-0.49397576
2	0xbf05f204	-0.5232241
3	0x3e4ede5f	0.20202015
4	0x3ef7a40a	0.4836734
5	0x3f19e14c	0.601094
6	0x3e27cc21	0.16386463
7	0x3f0dd6ba	0.5540577
8	0x3ea0b78d	0.31390038
9	0x3e8106e6	0.25200576
10	0xbdeb49dd	-0.11488698
11	0xbf91faef	-1.1404704
12	0x4007974b	2.1186092
13	0xbf03543c	-0.51300406
14	0xbe997d29	-0.29978302
15	0x3edf69fd	0.4363555
16	0xbec69451	-0.3878503
17	0xbf53e3c9	-0.8276945
18	0x3e9c8dbe	0.3057689
19	0x3f06f586	0.5271839
20	0x3f3baab2	0.73307335
21	0x3c4c5e6f	0.012473687
22	0x3ec8e652	0.3923822
23	0x3e940bc4	0.28915226
24	0x3eaf5000	0.34240723
25	0xbf38874e	-0.7208146
26	0xbf521540	-0.82063675
27	0x3cde6765	0.027148912
28	0xbe80b9c1	-0.2514172
29	0x3eee07d2	0.4649034
30	0x3ef10a73	0.47078285
31	0xbf7c476e	-0.98546493
32	0x3efb9450	0.4913659
33	0x3f3d7654	0.7400868
34	0x3e368fb5	0.17828257
35	0x3e378dde	0.17925212
36	0x3ef82268	0.4846375
37	0xbe6ddcfd	-0.23228832
38	0x3f641c8b	0.89106053
39	0x3f7b3f93	0.9814388
40	0xbf2147c8	-0.63000154
41	0xbd95dc8a	-0.07317455
42	0x3ddaeaea	0.106893376
43	0xbef795ee	-0.48356575
44	0x3e890ea5	0.26768985
45	0x3e8f610d	0.2800373
46	0x3f0e12fe	0.5549773
47	0xbe6af5c8	-0.2294532
48	0xbcef80a1	-0.02923614
49	0xbf0971fb	-0.53689545
50	0xbd7b6314	-0.061373785
51	0x3e894c3d	0.26815978
52	0x3e439b59	0.19102229
53	0xbed2b794	-0.41155684
54	0x3e1cfc0e	0.15330526
55	0xbeacb06d	-0.33728352
56	0xbec5eccb	-0.3865722
57	0x3e15157f	0.14558981
58	0x3f2b7250	0.669713
59	0xbef95e3f	-0.48704717
60	0xbd118009	-0.035522494
61	0xbf8d40aa	-1.1035359
62	0x3e743df5	0.2385176
63	0xbd563062	-0.052292235
64	0x3e7341e8	0.2375561
65	0xbe51ab89	-0.20475592
66	0x3f94c8cb	1.1623777
67	0x3f02c71a	0.51085055
68	0xbc8e1528	-0.017344072
69	0x3e0d650b	0.13808076
70	0xbea3fd01	-0.32028964
71	0x3e85efbb	0.26159462
72	0x3d5e9a95	0.05434664
73	0x3eb4b17c	0.3529166
74	0xbefa0497	-0.48831627
75	0xbf58ce55	-0.8468984
76	0x3eba3914	0.36371672
77	0xbe6cc249	-0.23120989
78	0x3f25ff79	0.64842945
79	0xbe8336a1	-0.25627616
80	0xbee8b8ad	-0.45453396
81	0xbf8376e5	-1.0270659
82	0x3ea426b7	0.32060787
83	0x3e085272	0.133127
84	0x3d4f4081	0.050598625
85	0x3c388707	0.011262662
86	0xbf1446cf	-0.57920545
87	0x3eda57ab	0.4264501
88	0x3e41e23c	0.18933958
89	0xbd6711d9	-0.056413505
90	0x3f11470e	0.56749046
91	0x3cb75881	0.02238107
92	0x3ef265b7	0.47343227
93	0x3ea07e1b	0.3134621
94	0x3dc674c3	0.09690239
95	0xbf524cfd	-0.82148725
96	0xbe03474d	-0.12820168
97	0x3ebfbbbc	0.37447917
98	0xbea5087e	-0.32233042
99	0x3ea8f9b2	0.33003002
100	0x3f100edc	0.56272674
101	0x3e8e224a	0.27760535
102	0x3ec998d6	0.39374417
103	0x3f020e09	0.50802666
104	0x3f7131e6	0.94216764
105	0x3ee87467	0.45401308
106	0xbeaadc2f	-0.33371112
107	0x3e1244a6	0.14284
108	0xbe849afd	-0.25899497
109	0x3f35196e	0.7074193
110	0x3ddd2f9f	0.10800099
111	0x3e2294fc	0.15877146
112	0x3e7cec74	0.24699575
113	0xbec51f2e	-0.3850035
114	0xbeeb0a67	-0.45906374
115	0x3e529ffd	0.20568843
116	0x3ddda267	0.108219914
117	0xbcd8df11	-0.026473554
118	0x3f3701ef	0.71487325
119	0xbe84b580	-0.25919724
120	0xbd0681cb	-0.032838624
121	0xbdcd3364	-0.100195676
122	0x3e8d5eca	0.2761138
123	0xbdb977c6	-0.09056048
124	0x3e23143a	0.15925685
125	0x3f19ed8a	0.6012808
126	0x3ed26064	0.41089165
127	0xbeaefec2	-0.3417874
128	0xbd97736f	-0.07395064
129	0x3e321091	0.17389132
130	0xbe2008d7	-0.15628372
131	0xbeffa90d	-0.49933663
132	0x3e24e5d4	0.16103297
133	0x3e7992c6	0.24372396
134	0x3ccc0999	0.02490692
135	0x3f267232	0.65018
136	0x3edd3e8d	0.43211785
137	0x3e5b7ed2	0.21435097
138	0x3d5cc3c7	0.053897645
139	0x3e773a7d	0.24143405
140	0x3f02da47	0.51114315
141	0xbe10e24e	-0.14148828
142	0xbc8bc63c	-0.017062299
143	0xbd9e8897	-0.07740896
144	0x3e0486f0	0.129421
145	0x3ec454c2	0.38345915
146	0x3eaea4d0	0.34110117
147	0x3f06382f	0.5242948
148	0xbe3084a7	-0.17238103
149	0x3e60f23e	0.21967408
150	0xbd623716	-0.055228315
151	0x3e7e6baa	0.24845758
152	0xbea27494	-0.31729567
153	0x3e321e91	0.17394473
154	0xbea1a54e	-0.3157143
155	0x3da1bac1	0.078969486
156	0xbecff78a	-0.40618545
157	0x3d6fab82	0.058513172
158	0x3f0e4a91	0.5558253
159	0xbefbb6cf	-0.4916291
160	0xbf67c54f	-0.90535444
161	0x3eb89bc9	0.36056355
162	0xbf939f32	-1.1532958
163	0x3ec97f08	0.3935473
164	0x3eb8b11f	0.36072633
165	0xbcfc863d	-0.030825729
166	0xbe9a74fd	-0.3016738
167	0x3e5d81ae	0.216315
168	0xbf390650	-0.7227526
169	0xbea52c70	-0.32260466
170	0xbee9a9f7	-0.45637485
171	0x3eefbd05	0.46823898
172	0xbee3977f	-0.4445152
173	0x3f1243cd	0.57134706
174	0xbbd6dfb8	-0.006557431
175	0xbf6d54f2	-0.9270774
176	0x3f32f367	0.6990265
177	0xbb4bb887	-0.0031085329
178	0x3e5588bc	0.20852941
179	0x3f6fa26d	0.9360722
180	0xbe6072dd	-0.21918817
181	0xbbbff97b	-0.005858598
182	0xbf7de9c7	-0.9918484
183	0x3e9af88b	0.30267748
184	0x3de9c570	0.11414611
185	0x3e90274d	0.28154984
186	0xbf5d610f	-0.86476225
187	0xbd53ef40	-0.05174184
188	0xbf04f116	-0.5193037
189	0x3f4c751d	0.798662
190	0x3d509723	0.050925385
191	0x3e172a86	0.14762315
192	0xbf8bc000	-1.0917969
193	0xbf128576	-0.57234895
194	0x3e220394	0.15821677
195	0xbd8259a8	-0.06364757
196	0xbeef7e58	-0.4677608
197	0x3e7ebd97	0.2487701
198	0xbdf7900f	-0.12088024
199	0x3f7cfd8f	0.988244
200	0xbf2f1b54	-0.68401074
201	0x3f0c72b7	0.5486254
202	0xbe9051e6	-0.28187484
203	0xbbce2776	-0.006291325
204	0x3e2f336f	0.17109464
205	0x3ed23877	0.41058704
206	0x3ed3a2e3	0.4133521
207	0xbf6a14cd	-0.9143799
208	0x3e28ca7f	0.16483496
209	0xbee16cce	-0.44028324
210	0x3dd36d7a	0.10323615
211	0x3e652bc5	0.22379978
212	0xbd6bd204	-0.057573333
213	0xbe715f2e	-0.23571464
214	0xbe0b479c	-0.13601536
215	0x3dd30f99	0.103057094
216	0x3e1df779	0.15426435
217	0x3eaadc37	0.33371136
218	0xbec10795	-0.37701097
219	0xbdfbc757	-0.122938804
220	0x3f47e7c7	0.7808804
221	0x3e696322	0.22791722
222	0xbf29a6cf	-0.66270155
223	0x3ef35693	0.47526988
224	0x3f62a800	0.885376
225	0xbd3bae8a	-0.04582075
226	0xbe893d08	-0.26804376
227	0x3ee92d95	0.4554259
228	0x3cdf368c	0.02724769
229	0x3f2984b8	0.6621814
230	0xbf147569	-0.57991654
231	0xbdb5f273	-0.08884134
232	0x3eed7610	0.46379137
233	0xbb373a93	-0.0027958497
234	0x3e0fe523	0.14052252
235	0xbe45ba85	-0.19309433
236	0xbf793745	-0.9734996
237	0xbefdf8f5	-0.49604002
238	0x3e97c978	0.29645896
239	0xbebfb4d1	-0.3744264
240	0xbe500443	-0.20314126
241	0x3e8f3e58	0.27977252
242	0x3eec1492	0.46109444
243	0xbf210f29	-0.6291376
244	0x3ebf87be	0.3740825
245	0xbf1fc90c	-0.6241615
246	0xbedb056f	-0.42777583
247	0x3ecdb21d	0.40174952
248	0x3da4e12a	0.08050759
249	0x3ec16702	0.377739
250	0xbdc3b356	-0.0955569
251	0xbe97a481	-0.29617694
252	0x3c920624	0.017825194
253	0xbcb78599	-0.022402572
254	0x3f0496b5	0.5179246
255	0x3d4016be	0.04689669

bias f4 [32]
0	0x3cf0213a	0.029312719
1	0xbda529be	-0.08064602
2	0xbddd9e81	-0.10821248
3	0xbeb4cb7e	-0.35311502
4	0xbd0eef3e	-0.034896128
5	0xbd20b2f6	-0.03923317
6	0xbe01df0b	-0.1268274
7	0x3c960924	0.018314905
8	0xbe10bceb	-0.14134566
9	0xbedf8ed9	-0.43663672
10	0x3e4a3e08	0.19750226
11	0xbd4147e4	-0.0471877
12	0xbe15eb96	-0.1464065
13	0xbe577cea	-0.21043745
14	0xbd08fa1d	-0.03344165
15	0x3df9f405	0.12204746
16	0x3d33fdc8	0.043943197
17	0x3ece528d	0.40297356
18	0xbebfa8a3	-0.37433347
19	0xbea41352	-0.3204599
20	0xbddecbe0	-0.1087873
21	0x3ea1b9a5	0.31586948
22	0xbdcffcf3	-0.10155668
23	0xbefc6128	-0.49292874
24	0xbd58e3ed	-0.052951742
25	0x3deaadf9	0.11458964
26	0xbdaff3d2	-0.08591427
27	0xbea534d9	-0.32266882
28	0xbe95653d	-0.291788
29	0x3dfe0099	0.12402458
30	0xbd029287	-0.03187802
31	0xbd78743d	-0.06065773

weight f4 [12, 32]
0	0x3deb9d12	0.11504568
1	0xbeb06f15	-0.3445975
2	0xbd80cbe8	-0.06288892
3	0xbebf6f4b	-0.37389597
4	0x3e2d8c31	0.1694801
5	0x3d18c3ba	0.037296034
6	0xbefbc1e0	-0.49171352
7	0x3ed9c200	0.42530823
8	0xbe4aad94	-0.19792777
9	0x3da11c9a	0.078667834
10	0x3eb6b153	0.35682163
11	0x3dad971a	0.08476086
12	0xbef0d5f7	-0.47038242
13	0xbd82b075	-0.06381313
14	0xbeb9b56d	-0.3627123
15	0xbec06abc	-0.37581432
16	0xbe08c887	-0.13357745
17	0xbf043191	-0.5163813
18	0x3e004a2b	0.12528293
19	0x3cef8195	0.029236594
20	0xbe2816f6	-0.16415009
21	0x3ceb4864	0.028721042
22	0x3e81c7d4	0.2534777
23	0x3e44e1d4	0.19226772
24	0x3d8e6dcb	0.06954535
25	0x3e375da5	0.17906816
26	0xbd984dbd	-0.074367024
27	0x3f46e96b	0.7769992
28	0xbe402566	-0.18764266
29	0xbe057404	-0.13032538
30	0x3e82bc59	0.25534323
31	0xbeb42184	-0.3518182
32	0x3dedc8ff	0.116106026
33	0x3e84675a	0.258601
34	0xbd8ebdcd	-0.069697954
35	0xbe972155	-0.29517618
36	0xbd71a2c7	-0.058993127
37	0x3eeae47c	0.45877445
38	0xbd7c6696	-0.06162127
39	0xbce11cb2	-0.027479503
40	0xbd53571c	-0.051596746
41	0x3cd33d84	0.025786169
42	0x3efe336c	0.49648607
43	0xbedb5513	-0.42838344
44	0xbe7d8ac0	-0.2475996
45	0x3e8822cc	0.26589048
46	0xbddffa36	-0.10936396
47	0x3b945740	0.0045270026
48	0x3c0ecd3c	0.008715924
49	0x3e0dcea0	0.13848352
50	0xbe8d2620	-0.2756815
51	0xbe6e3867	-0.23263703
52	0xbe261d62	-0.16222146
53	0x3f1e5405	0.61846954
54	0x3e75e7f2	0.24014261
55	0xbf23a464	-0.63922715
56	0x3e8ad711	0.27117208
57	0x3e96c99d	0.29450694
58	0x3e86e5be	0.26347154
59	0x3cc8681d	0.024463708
60	0xbdc3c164	-0.09558371
61	0x3e85cca3	0.26132688
62	0x3d66aa8b	0.056314986
63	0xbe291c4b	-0.16514699
64	0x3ceb55c6	0.028727423
65	0xbe682130	-0.2266891
66	0xbe4e28a9	-0.20132698
67	0x3e21a1e8	0.15784419
68	0xbe594c7e	-0.21220586
69	0xbdd74073	-0.105103396
70	0x3ca1e8aa	0.019764263
71	0xbdb18cf8	-0.08669466
72	0xbdb25100	-0.08706856
73	0xbea682cf	-0.32521674
74	0x3e58c7a7	0.21169911
75	0x3e0f7f20	0.14013338
76	0x3e499d84	0.19688994
77	0xbde9bb9e	-0.11412738
78	0x3ea18a5d	0.31550875
79	0xbe0877a7	-0.13326894
80	0x3d11ac8b	0.03556494
81	0xbdf697d2	-0.12040676
82	0xbd8e5efa	-0.06951709
83	0x3e47eee8	0.19524729
84	0x3cec40b2	0.028839443
85	0xbe1c351e	-0.15254638
86	0xbd87f6ca	-0.06638868
87	0xbe2d1167	-0.1690117
88	0xbecf635f	-0.40505502
89	0xbcc1fe46	-0.023680817
90	0x3e4c7bc4	0.19969088
91	0x3d04af37	0.03239366
92	0x3e009009	0.12554945
93	0xbdd979fd	-0.106189705
94	0x3b9c02bb	0.0047610677
95	0x3e2b8f71	0.16753937
96	0x3e899fc1	0.26879695
97	0x3e896cff	0.2684097
98	0x3d34eab7	0.044169154
99	0xbe8a3194	-0.2699095
100	0x3d28d6d4	0.0412205
101	0xbea850df	-0.328742
102	0xbe71d2e6	-0.23615608
103	0x3e1d7daa	0.15379968
104	0xbe71a33e	-0.23597428
105	0xbe0a6677	-0.1351565
106	0x3e4e6adf	0.20157956
107	0xbca12f4b	-0.019675871
108	0xbf023148	-0.5085645
109	0x3d664340	0.05621648
110	0x3ea893f2	0.32925373
111	0x3def47f6	0.11683647
112	0x3ded20eb	0.11578544
113	0x3f072c9b	0.5280244
114	0x3e9366fa	0.28789502
115	0x3f1ddd8f	0.61666197
116	0xbec3b605	-0.38224807
117	0xbca118b4	-0.0196651
118	0xbe9f9ebd	-0.31175795
119	0x3e508fbb	0.20367329
120	0x3e0493c0	0.12946987
121	0x3c35ff7f	0.011108278
122	0xbeb62b9d	-0.3558015
123	0x3e5f3484	0.21797377
124	0x3abaf2b0	0.0014263
125	0xbd80270c	-0.062574476
126	0x3e78baa9	0.24289955
127	0xbcb4a1d3	-0.02204982
128	0xbea9f7d9	-0.33196905
129	0x3d8b7953	0.0681025
130	0xbe0117b3	-0.12606697
131	0xbeb86cdb	-0.3602055
132	0xbe16381e	-0.14669845
133	0x3d1b1117	0.037858095
134	0x3eaa5009	0.33264187
135	0x3d6a2a54	0.057169273
136	0xbe0495d8	-0.12947786
137	0xbf02538e	-0.50908744
138	0x3e9c5cce	0.30539554
139	0xbe12edf5	-0.14348586
140	0xbf515d58	-0.81783056
141	0xbef7af99	-0.48376158
142	0x3d956cec	0.07296166
143	0xbdbdbd6d	-0.09264646
144	0xbddb0b87	-0.10695558
145	0xbc9cb2d9	-0.01912825
146	0xbe596ec3	-0.21233658
147	0xbeaed54c	-0.34147108
148	0x3ebfb50f	0.37442824
149	0xbda8dcfe	-0.08245276
150	0xbeb43ed5	-0.35204187
151	0x3f3b171d	0.73082143
152	0xbece93d7	-0.40347168
153	0x3e53a78c	0.20669383
154	0xbe7d224e	-0.24720117
155	0x3eab948a	0.33511764
156	0x3e126b7f	0.14298819
157	0x3fbcec62	1.4759638
158	0xbdd09860	-0.10185313
159	0x3da9e72e	0.08296047
160	0xbe7ec6b8	-0.24880493
161	0x3dde767a	0.10862441
162	0xbe5bae16	-0.21453127
163	0x3eafb958	0.34321094
164	0xbd6ff02e	-0.058578663
165	0x3e8a5a5c	0.27022064
166	0xbe2ca696	-0.16860422
167	0x3f0040bd	0.5009878
168	0xbd0769fd	-0.033060063
169	0x3e1dfdd6	0.15428862
170	0x3e2f4d67	0.1711937
171	0xbd71a029	-0.05899063
172	0xbc609dad	-0.013709468
173	0xbea413e2	-0.3204642
174	0xbece4551	-0.4028726
175	0xbc5d966f	-0.013524636
176	0xbf13ec78	-0.577827
177	0x3ea0b2ef	0.31386515
178	0xbe9cfc17	-0.3066108
179	0xbe08d78b	-0.13363473
180	0x397ccffa	0.0002411007
181	0x3ebc8c2d	0.36825696
182	0xbf66dbb9	-0.9017902
183	0x3d8589ec	0.06520447
184	0xbe542220	-0.20716143
185	0x3ee06be1	0.43832305
186	0x3c283df0	0.010268673
187	0x3dbd43fa	0.09241481
188	0x3cc39a98	0.023877427
189	0xbeba0c9b	-0.36337742
190	0x3c45280e	0.012033476
191	0xbe0e5869	-0.13900913
192	0xbda5e207	-0.08099752
193	0x3efe7af1	0.49703172
194	0xbd7d7221	-0.06187642
195	0x3ec4e413	0.38455257
196	0xbedcd850	-0.43133783
197	0xbdf270e6	-0.1183794
198	0x3eba2389	0.36355236
199	0xbe78a550	-0.24281812
200	0xbc8c1010	-0.017097503
201	0x3e046a8a	0.12931266
202	0xbe6c7992	-0.2309325
203	0xbe1c74c4	-0.15278918
204	0x3e8b293e	0.27179903
205	0x3e0b8e55	0.13628514
206	0x3e3bee14	0.18352538
207	0x3e6374d1	0.2221253
208	0xbe9fe44d	-0.31228867
209	0xbee07be9	-0.43844536
210	0x3e96908e	0.2940716
211	0xbee1e801	-0.44122317
212	0x3ed39832	0.41327053
213	0x3e9ec581	0.3101006
214	0x3db4f98e	0.08836661
215	0xbdefe201	-0.11713029
216	0xbe0fcaac	-0.14042157
217	0xbeaebaba	-0.34126836
218	0x3e17d0ca	0.1482574
219	0xbf002001	-0.50048834
220	0x3e698293	0.22803716
221	0xbda0ae52	-0.07845749
222	0x3e524d0f	0.20537208
223	0x3e4fc621	0.20290424
224	0xbe41c91a	-0.1892437
225	0xbe9af36f	-0.3026385
226	0xbe2beee3	-0.16790347
227	0x3c2c1c41	0.010504783
228	0xbe963c10	-0.293427
229	0xbed60b8a	-0.4180568
230	0xbea25e3d	-0.31712523
231	0xbf19988b	-0.5999839
232	0x3de88281	0.11353017
233	0x3e169379	0.14704694
234	0xbe203fa7	-0.15649281
235	0x3e6f9d14	0.23399764
236	0x3f08468c	0.53232646
237	0x3e2521b7	0.16126142
238	0xbe7667c5	-0.24063022
239	0xbd74e578	-0.05978915
240	0xbe1d7df3	-0.15380077
241	0x3e3ddd46	0.1854144
242	0x3e32e7cc	0.17471236
243	0x3d417b92	0.047236986
244	0x3ec67db1	0.3876777
245	0xbea76f78	-0.3270223
246	0x3e0bb777	0.13644205
247	0x3e3abf1d	0.18236966
248	0xbeac2514	-0.33622038
249	0xbdf08f51	-0.117460854
250	0xbccfa4f1	-0.025347205
251	0x3e9800d0	0.2968812
252	0x3e71dfa2	0.23620465
253	0x3d0a2697	0.03372821
254	0x3e089348	0.13337433
255	0xbe45de15	-0.19322999

bias f4 [12]
0	0xbde88019	-0.11352558
1	0x3e9bf7a6	0.30462378
2	0xbd90c1f1	-0.070682414
3	0x3e9605cf	0.29301307
4	0x3e92e35e	0.28689092
5	0x3da5d628	0.08097488
6	0xbea1c773	-0.3159748
7	0xbe13883c	-0.14407438
8	0x3e5035b0	0.2033298
9	0x3ed36fb1	0.4129615
10	0x3e80cc84	0.25156033
11	0x3de4bab6	0.11168425

weight_ih_l0 f4 [256, 47]
0	0xbe8372b9	-0.25673464
1	0x3f36fa1b	0.7147538
2	0xbe90ec7e	-0.2830543
3	0x3f949d62	1.161053
4	0x3ec8f1f6	0.39247102
5	0x3f16c7e0	0.58898735
6	0xbeb11e21	-0.345933
7	0x3de04c41	0.10952044
8	0xbd94c819	-0.07264728
9	0xbf5618a6	-0.8363136
10	0xbfb0adef	-1.380308
11	0xbed65dfa	-0.41868573
12	0xbe874f43	-0.2642766
13	0xbf47d5c4	-0.78060555
14	0x3ea42421	0.32058814
15	0x3e9a2744	0.30108082
16	0xbfa47bf9	-1.2850333
17	0x3e47b385	0.19502075
18	0xbf0fa0de	-0.5610484
19	0xbe9eda49	-0.31025913
20	0x3f2023c0	0.6255455
21	0x3ec01bd1	0.37521222
22	0xbf892380	-1.0713959
23	0x3f4b7e52	0.79489625
24	0xbd00eed3	-0.03147776
25	0x3ea4758f	0.3212094
26	0x3e3080ed	0.17236681
27	0x3ef6d25a	0.4820736
28	0xbf0fa93c	-0.56117606
29	0xbe9a4575	-0.30131117
30	0x3e745afa	0.2386283
31	0x3e874140	0.2641697
32	0xbdd9097f	-0.10597514
33	0x3e708c86	0.23491105
34	0xbdbc39ea	-0.09190734
35	0x3de04b8d	0.1095191
36	0xbe0d365d	-0.13790269
37	0x3dc30990	0.09523308
38	0xbdc1d1ac	-0.0946382
39	0x3da38849	0.07984979
40	0xbdbcf918	-0.09227198
41	0x3db1a898	0.08674735
42	0x3ddba7d9	0.10725374
43	0x3ceb150d	0.028696561
44	0xbdb5101b	-0.088409625
45	0xbe5fbba5	-0.21848924
46	0x3e0cfc0c	0.13768023
47	0x3e3e6449	0.18592943
48	0x3e1d9ba7	0.15391408
49	0x3fe579e2	1.7927821
50	0xbf927f61	-1.1445123
51	0x3e047b0b	0.12937562
52	0x3ee2f5e0	0.44328213
53	0xbd0d06ae	-0.0344302
54	0x3f2d058f	0.67586607
55	0xbf39ba2d	-0.72549707
56	0xbf2c6a7b	-0.67349976
57	0xbec4f03e	-0.3846454
58	0x3ea6e1df	0.325942
59	0xbd4dd33b	-0.050250273
60	0x3e9389f7	0.28816196
61	0xbeb516b1	-0.35368875
62	0x3fda6c74	1.7064347
63	0xc00e0e83	-2.2196357
64	0xbbf55693	-0.007487127
65	0x3ea6c5e3	0.3257285
66	0xbec8ba04	-0.3920442
67	0x3eec8f06	0.46202868
68	0xbe8e3ed8	-0.2778232
69	0xbf2dcc2a	-0.67889655
70	0x3ffb68bf	1.9641341
71	0xbdfbca69	-0.12294466
72	0x3f3b990e	0.7328042
73	0xbe3dbf7d	-0.18530078
74	0xbf5a3288	-0.85233355
75	0x4028e155	2.6387532
76	0xbf2e190f	-0.68006986
77	0xbf087d7c	-0.53316474
78	0x3f72e94d	0.9488724
79	0x3f9b8a9e	1.2151678
80	0x3d5a3b6d	0.05327933
81	0xbf262d64	-0.6491301
82	0xbd3062d5	-0.043063004
83	0xbe5d8e2a	-0.21636263
84	0x3d989519	0.07450313
85	0xbbb73ddc	-0.005592091
86	0xbe6f366b	-0.23360603
87	0x3e059e01	0.13048555
88	0x3e8e2281	0.277607
89	0x3ecea2af	0.40358493
90	0x3d965629	0.073406525
91	0xbde4062b	-0.11133989
92	0x3f169ed5	0.5883611
93	0x3d88825b	0.06665488
94	0x3ece5551	0.40299466
95	0xbe514952	-0.20438126
96	0x3dfe5161	0.124178655
97	0xbf8fa626	-1.122258
98	0xbf1521b1	-0.58254534
99	0x3ed32292	0.41237313
100	0xbe6ccbae	-0.23124573
101	0xbf149c76	-0.5805124
102	0x3f05f4c5	0.52326614
103	0xbf671dde	-0.9027995
104	0xc0119b99	-2.275122
105	0x3f6a6aab	0.9156901
106	0xbf024768	-0.5089021
107	0xbe59b99f	-0.21262215
108	0xbe887fff	-0.26660153
109	0x3f2d6b9f	0.6774234
110	0x4084c3d7	4.148906
111	0xbff8240a	-1.9385998
112	0x3eeb6151	0.45972684
113	0x3f5d1ef2	0.86375344
114	0xbcae06c5	-0.021243462
115	0x3d95a17a	0.0730619
116	0xbeebbe38	-0.46043563
117	0xbc0ab632	-0.00846629
118	0x3de14cd4	0.11000982
119	0x3d4d046e	0.050053053
120	0xbe826ba6	-0.25472754
121	0x3edcd83a	0.43133718
122	0x405cdb9f	3.4509046
123	0xbef6a22b	-0.481706
124	0x3e41ee06	0.18938455
125	0xbe3caf04	-0.18426138
126	0x3eb930fa	0.3617018
127	0xbdaa2a5b	-0.0830886
128	0x3e74633b	0.23865978
129	0x3e03cb64	0.12870556
130	0xbdaece3d	-0.085354306
131	0x3d814faa	0.06314023
132	0xbb7d0356	-0.0038606725
133	0xbcf01e0b	-0.0293112
134	0x3e78eead	0.24309798
135	0xbee2583b	-0.4420794
136	0x3eeb059e	0.45902723
137	0xbd26a4f1	-0.040684644
138	0x3ecbcc17	0.39804146
139	0x3eca5ece	0.39525455
140	0xbf3c0825	-0.7344993
141	0x3f5f03e6	0.87115324
142	0xbecb2639	-0.396776
143	0xbfc5863b	-1.5431589
144	0xbf75083a	-0.9571568
145	0x3f885484	1.0650792
146	0x3d7ddde5	0.061979193
147	0x3c3cc09c	0.011520531
148	0xbe132a18	-0.14371526
149	0xbf01d6b5	-0.5071824
150	0x3f5666a3	0.8375036
151	0xbffbb340	-1.9664078
152	0xbe00068d	-0.12502499
153	0xbece43cd	-0.40286103
154	0x3ddf3870	0.108994365
155	0xbef0784c	-0.4696678
156	0xbef536f8	-0.478935
157	0xbe4c4ce1	-0.19951202
158	0x3dc2ed0f	0.095178716
159	0xbe9cf468	-0.30655217
160	0xbe858ef5	-0.2608563
161	0x3c122063	0.008918854
162	0xbfc7e610	-1.5617085
163	0xbfa17127	-1.2612656
164	0x3f7d8a3d	0.9903906
165	0x3ef40d12	0.47666222
166	0xbf0353ae	-0.5129956
167	0x3f8e6f71	1.1127759
168	0x3e6be24f	0.23035549
169	0x3ea50c4b	0.3223594
170	0xbe7e1be3	-0.24815325
171	0xbc72c96b	-0.01481853
172	0x3faa339a	1.3296998
173	0xbf2147e6	-0.63000333
174	0x3d9ef84c	0.077622026
175	0xbf073ddd	-0.5282877
176	0x3f5ae336	0.85502946
177	0x3ea705dd	0.3262166
178	0x3c84f395	0.01622943
179	0xbc6cba33	-0.01444869
180	0x3ccb85b9	0.024844037
181	0x3db98634	0.090588
182	0x3df5e825	0.12007169
183	0x3c99446f	0.01870939
184	0xbbb37a28	-0.0054772086
185	0xbea36d74	-0.31919444
186	0xbe3b172d	-0.1827056
187	0x3e72208c	0.23645228
188	0xbfa3a8ec	-1.2785926
189	0x3f53a3e8	0.82671976
190	0xbf700442	-0.93756497
191	0x3f7678f3	0.96278304
192	0x4039fcb3	2.9060485
193	0x3e0431ed	0.1290967
194	0xbbab8784	-0.0052346606
195	0x3f160be8	0.5861192
196	0x3e69b836	0.22824177
197	0x3eb3b87d	0.3510169
198	0xc04772bc	-3.1163778
199	0x4018b61b	2.3861148
200	0xbeab5146	-0.33460444
201	0xbe9fbdfa	-0.31199628
202	0xbffa1ce9	-1.9540073
203	0xbe5a1ef2	-0.21300867
204	0xbfb848e9	-1.439725
205	0x3ed88ae3	0.42293462
206	0xbe0e318d	-0.1388609
207	0xbed0f88a	-0.4081462
208	0xbe23505a	-0.1594862
209	0xbfa57639	-1.2926704
210	0xc014baa3	-2.3238914
211	0x3f971ac5	1.1805044
212	0x3ec1f79e	0.3788423
213	0xbf2f7ff0	-0.6855459
214	0xbe8812bb	-0.2657679
215	0x3ea53d74	0.32273448
216	0x3f1ac39b	0.6045472
217	0x3f3ddfd8	0.74169683
218	0xbf8b5d23	-1.0887798
219	0xbeeceab2	-0.46272808
220	0x3f104bda	0.5636574
221	0x3dd6ef26	0.10494833
222	0xbf0cfecd	-0.55076295
223	0xbd6a93ce	-0.057269864
224	0xbcecbf14	-0.028899707
225	0xbc4c6918	-0.012476228
226	0xbeb93f63	-0.36181173
227	0xbcfc3012	-0.03078464
228	0xbe91a731	-0.2844787
229	0x3d7678e2	0.060173877
230	0xbda94a98	-0.08266181
231	0x3e36bff3	0.1784666
232	0xbe463e69	-0.19359745
233	0xbed45fa1	-0.4147921
234	0xbcd13b84	-0.025541075
235	0x3fb3507c	1.4008937
236	0xbfc55651	-1.5416967
237	0x3fa1b2f0	1.2632732
238	0xbe16fda2	-0.1474519
239	0xbdaa23f6	-0.0830764
240	0x3ebb007d	0.3652381
241	0xbd89c22e	-0.0672649
242	0x3e22fa76	0.15915856
243	0xbf418faf	-0.7560987
244	0xbf540799	-0.82824093
245	0x3fc14f4b	1.5102323
246	0xc003492b	-2.0513408
247	0x3e12e3ed	0.1434476
248	0x3e97fe3d	0.29686156
249	0xbd8ed77c	-0.06974694
250	0xbe69e0ee	-0.2283971
251	0xbfa59d8e	-1.2938707
252	0x403c7272	2.9444852
253	0x3f898895	1.0744807
254	0x3f0cfeaf	0.55076116
255	0xbe972ae1	-0.29524902

weight_hh_l0 f4 [256, 64]
0	0x3fa0a5c3	1.2550586
1	0xbd8f3ef8	-0.06994432
2	0x3f0fb5f9	0.56137043
3	0x3e3b8c8b	0.18315332
4	0x3ede01b2	0.43360668
5	0xbebab745	-0.3646795
6	0x3e590026	0.21191463
7	0x3f145a19	0.5794998
8	0x3eaa8f85	0.33312622
9	0xbe6b56c6	-0.2298232
10	0xbf072321	-0.5278798
11	0x3f520115	0.820329
12	0xbea485e3	-0.32133397
13	0xbd9e83df	-0.07739996
14	0x3f807d21	1.0038186
15	0x3f98514e	1.1899812
16	0xbf491e5b	-0.78561944
17	0xbe9f0616	-0.3105933
18	0x3cfed7e6	0.031108808
19	0xbe8a25da	-0.26982003
20	0xbed4d520	-0.4156885
21	0x3f63ce42	0.889866
22	0xbf58a9b5	-0.8463395
23	0xbece25e1	-0.40263274
24	0xbe196536	-0.14980015
25	0x3efc73a7	0.49306986
26	0x3f456595	0.77108127
27	0xbed86340	-0.42263222
28	0xbf063ecb	-0.52439564
29	0xbe43f23b	-0.19135372
30	0xbf50ea83	-0.81607836
31	0x3f1badde	0.60812175
32	0xbeb00128	-0.34375882
33	0xbf09186e	-0.535529
34	0x3ec6fb8b	0.38863787
35	0x3f0e4ccb	0.55585927
36	0xbf3c0a25	-0.7345298
37	0x3e34ae46	0.17644605
38	0x3f4c1d5a	0.79732287
39	0x3dcf09ed	0.10109315
40	0xbe537e05	-0.20653541
41	0xbee6c433	-0.45071563
42	0xbf1e051a	-0.61726534
43	0x3ea130f6	0.31482667
44	0xbee4ed97	-0.44712517
45	0xbeca8043	-0.3955098
46	0x3bcf8549	0.0063330275
47	0xbeffcd3a	-0.49961263
48	0x3e8efe34	0.27928317
49	0x3e8abb97	0.27096245
50	0xbc50c450	-0.012742117
51	0x3d51c6b3	0.051214885
52	0xbe89b8d2	-0.2689882
53	0xbf035d74	-0.51314473
54	0x3eaaba0d	0.3334507
55	0x3ea1b6aa	0.31584674
56	0xbddcd86b	-0.10783466
57	0x3d743085	0.059616584
58	0x3f269bde	0.65081584
59	0xbecfae85	-0.40562835
60	0x3ef9cb47	0.487879
61	0xbf277eda	-0.65427935
62	0xbe908f5d	-0.28234378
63	0xbf3d5425	-0.7395652
64	0xbe21c8a9	-0.15799202
65	0xbd62f84a	-0.05541257
66	0xbeb18f9b	-0.34679875
67	0x3d9a686d	0.07539449
68	0x3f969355	1.1763712
69	0xbf261020	-0.64868355
70	0x3f887cc7	1.0663079
71	0x3f53c27f	0.8271865
72	0xbe02c48b	-0.12770288
73	0x3da1a53c	0.07892844
74	0xbee99bf1	-0.45626786
75	0xbddfdc2c	-0.10930666
76	0xbf1de8a4	-0.61683106
77	0x3d3c172c	0.045920536
78	0x3ef90128	0.48633695
79	0x3eff2841	0.498354
80	0x3eed9720	0.46404362
81	0x3d57ff52	0.052733727
82	0xbecbe54d	-0.3982338
83	0x3d2f0a89	0.042734656
84	0xbdea5381	-0.11441708
85	0xbf994946	-1.1975486
86	0x3f2f2596	0.68416727
87	0xbeb47fc1	-0.35253718
88	0xbe356f90	-0.17718339
89	0xbfbc5d81	-1.4716035
90	0xbed8bff2	-0.42333943
91	0x3f189d45	0.59614974
92	0x3f601ae9	0.8754106
93	0xbe4266e3	-0.1898456
94	0x3ea8075e	0.3281812
95	0x3f2250e9	0.6340471
96	0xbe280baf	-0.16410707
97	0xbe5b5aca	-0.21421352
98	0x3f9639d2	1.1736395
99	0x3fc4283b	1.5324777
100	0x3ca3a449	0.019975798
101	0xbc322d8f	-0.01087512
102	0x3f427581	0.75960547
103	0x3fa38631	1.2775327
104	0x3f02f846	0.51160085
105	0x3f2b0766	0.66808164
106	0xbef83f25	-0.48485675
107	0x3eba6718	0.3640678
108	0x3f05c32a	0.5225092
109	0xbf86f173	-1.0542434
110	0xbf0f2158	-0.55910254
111	0xbd7a3a67	-0.061090853
112	0xbd678f74	-0.056533292
113	0xbd2cf594	-0.04222639
114	0xbe5d03fb	-0.2158355
115	0xbf5cbce0	-0.862257
116	0xbee4e7df	-0.44708154
117	0x3e102693	0.14077215
118	0x3e25c467	0.16188203
119	0x3e805852	0.25067383
120	0xbe84489b	-0.25836644
121	0xbec93fa0	-0.39306355
122	0x3e0a71e6	0.13520011
123	0x3d84c826	0.06483488
124	0x3c8ebe67	0.017424775
125	0x3e439556	0.19099936
126	0x3f106f06	0.5641941
127	0xbd81c1e4	-0.0633581
128	0xbfad9291	-1.3560354
129	0xbdad935e	-0.08475374
130	0xbfbd38ef	-1.4783
131	0xbf2d8e35	-0.67795116
132	0x3d0aadcd	0.033857156
133	0x3f2333de	0.6375102
134	0x3f0d5eef	0.5522298
135	0x3f1067a0	0.5640812
136	0xbf48db4f	-0.7845964
137	0xbec547cb	-0.38531336
138	0xbf34914c	-0.70534205
139	0x3f6445aa	0.891688
140	0x3f8b9126	1.0903671
141	0x3f777435	0.9666169
142	0x3f7e5d19	0.99360806
143	0x3d43f606	0.047842048
144	0x3f0cdbac	0.5502269
145	0xbf1357f4	-0.5755608
146	0xbe2a7c40	-0.1664896
147	0xbcb5c64e	-0.022189286
148	0xbfb3c16d	-1.4043404
149	0x3f4194e2	0.756178
150	0xbf49e990	-0.78872013
151	0xbf0d5f12	-0.5522319
152	0xbdd4bed4	-0.1038796
153	0x3febae4d	1.8412567
154	0xbf1b8207	-0.6074528
155	0x3e4ea32e	0.20179436
156	0x3f88dfd7	1.069331
157	0xbf066e4a	-0.5251204
158	0xbc9d4ad1	-0.019200714
159	0xbe2ab587	-0.1667081
160	0x3f9d15de	1.2272298
161	0xbeb0156e	-0.3439135
162	0x3f9545c2	1.1661913
163	0x3f5abda0	0.85445595
164	0xbf58fdad	-0.8476208
165	0x3fad7b01	1.3553163
166	0xbfa6f535	-1.3043581
167	0xbf8c7656	-1.0973613
168	0x3e639853	0.22226076
169	0xbeb7772d	-0.3583311
170	0xbde69d3d	-0.112604596
171	0x3f50a9f3	0.8150932
172	0xbe0b6abd	-0.13614936
173	0xbf2bcc65	-0.67108756
174	0xbe9a32a1	-0.30116752
175	0xbeb375d1	-0.35050824
176	0xbf6ff2df	-0.93729967
177	0xbd8627e2	-0.06550576
178	0x3f46b5c5	0.7762111
179	0x3fad5d90	1.3544178
180	0xbea59d8d	-0.32346764
181	0xbd356513	-0.044285845
182	0xbf2f6058	-0.68506384
183	0xbd36fcb7	-0.0446746
184	0x3e435846	0.19076642
185	0xbf56441d	-0.8369768
186	0xbfa17f46	-1.2616966
187	0xbeb0b382	-0.34511954
188	0x3e83c279	0.25734308
189	0xbe8ef111	-0.27918294
190	0xbf348b74	-0.7052529
191	0xbe1e0a4f	-0.1543362
192	0xbe40fc75	-0.18846305
193	0x3e9c3037	0.30505535
194	0x3d870f30	0.06594694
195	0x3f3fb10d	0.74879533
196	0xbf1d9838	-0.6156039
197	0xbdc9c822	-0.098526254
198	0x3e82814f	0.2548928
199	0x3f0e26c2	0.5552789
200	0x3e8f5c46	0.28000087
201	0x3f202d5e	0.62569225
202	0x3e7888ee	0.24270985
203	0xbf6416cb	-0.8909728
204	0xbe829bf2	-0.25509602
205	0x3e9a8929	0.3018277
206	0xbf96dc1c	-1.1785922
207	0xbf45687a	-0.77112544
208	0x3f8973ab	1.0738424
209	0xbdd8120b	-0.105503164
210	0x3f2ca522	0.6743947
211	0xbe3dddd8	-0.18541658
212	0xbf2f2031	-0.68408495
213	0xbf5f3d06	-0.8720249
214	0x3e19ac53	0.15007143
215	0xbf57f3b6	-0.8435625
216	0x3de53be7	0.11193066
217	0x3f4e767f	0.8064956
218	0xbf312fee	-0.6921376
219	0x3e9a0b95	0.3008696
220	0x3f108a4f	0.5646104
221	0xbee99daf	-0.45628116
222	0xbe9c4bec	-0.30526674
223	0x401cd5f4	2.4505587
224	0xbe5d385d	-0.21603532
225	0x3ea0ba01	0.3139191
226	0x3f1dd488	0.6165242
227	0xbeea13d5	-0.45718256
228	0xbdf0c115	-0.117555775
229	0x3f357f2c	0.70897174
230	0x3ebdf514	0.37101042
231	0x3f1ce68d	0.6128929
232	0x3fa8d521	1.3190042
233	0xbf0789b6	-0.52944505
234	0xbe3c6ee9	-0.18401684
235	0x3f0381a0	0.5136967
236	0x3f0b2f52	0.5436908
237	0xc0047167	-2.0694215
238	0xbf0eed14	-0.558305
239	0xbd2b5e67	-0.041838076
240	0xbe87e9fd	-0.26545706
241	0xbd666484	-0.056248203
242	0xbd03845b	-0.032108646
243	0xbf9b6d83	-1.2142795
244	0x3e98be47	0.2983267
245	0x3d823df3	0.06359472
246	0x3e0b93d7	0.13630615
247	0xbf2dd401	-0.6790162
248	0xbf0b1128	-0.54323053
249	0xbf42e2cd	-0.7612732
250	0x3fc7643c	1.5577464
251	0xbf13480a	-0.575318
252	0xbe099a4c	-0.13437766
253	0x3f728250	0.9473009
254	0xbf3a88cb	-0.7286498
255	0x3e09d545	0.13460262

bias_ih_l0 f4 [256]
0	0xbf0ea8f4	-0.5572655
1	0xbedae45e	-0.42752355
2	0xbef9273d	-0.4866275
3	0x3b9a2f67	0.004705358
4	0x3bca179c	0.0061673652
5	0xbf15064d	-0.5821274
6	0xbe36c2ba	-0.1784772
7	0xbf279fa8	-0.6547799
8	0x3d4c59ab	0.0498902
9	0xbeb55a62	-0.3542052
10	0xbf064b99	-0.524591
11	0xbdc85ec2	-0.097836986
12	0xbec87058	-0.3914821
13	0x3e340bc8	0.17582619
14	0xbf03940e	-0.5139779
15	0xbebc9270	-0.36830473
16	0x3e312a7c	0.17301363
17	0xbf2093fb	-0.627258
18	0xbf47b30e	-0.7800759
19	0xbe893ffe	-0.26806635
20	0xbf1c9038	-0.6115756
21	0xbe3f85ac	-0.18703336
22	0xbebe8863	-0.3721343
23	0x3d2b0905	0.04175665
24	0xbdf40770	-0.11915481
25	0xbe57a4fe	-0.21059033
26	0x3d3641e3	0.04449643
27	0xbcaa88dc	-0.020817213
28	0xbda7188d	-0.081589796
29	0xbe107c71	-0.1410997
30	0xbed3ffc3	-0.41406068
31	0xbe4f3c2f	-0.20237802
32	0xbee05c19	-0.43820265
33	0xbed3f190	-0.41395235
34	0xbf29b129	-0.6628595
35	0xbe5e7a02	-0.2172623
36	0x3c8844fe	0.01663446
37	0xbea88f28	-0.3292172
38	0xbccfb640	-0.025355458
39	0xbc610267	-0.013733483
40	0xbf57f843	-0.8436319
41	0xbe84bc09	-0.2592471
42	0x3d6bd4d3	0.057576012
43	0xbe5c9c8f	-0.21544097
44	0xbf13ab0c	-0.5768287
45	0xbd09c17f	-0.033631798
46	0xbec66c74	-0.38754618
47	0xbc93499e	-0.01797944
48	0xbe9cae88	-0.30601907
49	0xbc565a2b	-0.013083021
50	0xbe873c6b	-0.26413283
51	0xbf2ccdb6	-0.6750139
52	0xbea7cf77	-0.3277547
53	0x3e68ff48	0.22753632
54	0xbf355f50	-0.7084856
55	0xbed44643	-0.41459855
56	0xbe80dca4	-0.25168335
57	0xbe536564	-0.20644146
58	0x3d1bf4e9	0.03807536
59	0xbe374a9a	-0.17899552
60	0xbe1cf6b3	-0.15328483
61	0xbe858bc1	-0.26083186
62	0xbf101e42	-0.5629617
63	0xbed3e92c	-0.41388834
64	0xbe3a5ba2	-0.18199018
65	0x3c97347c	0.018457644
66	0xbec6ced2	-0.38829666
67	0x3becd48e	0.007227487
68	0xbf002846	-0.5006145
69	0xbf285608	-0.65756273
70	0x3e388d77	0.18022715
71	0xbda486d0	-0.08033526
72	0xbe4dd681	-0.20101358
73	0x3e3b7d72	0.18309572
74	0xbf863244	-1.048409
75	0xbe55c29f	-0.20875023
76	0xbee3dea7	-0.44505808
77	0xbf55ccfe	-0.8351592
78	0xbf5767c8	-0.8414273
79	0xbf645005	-0.891846
80	0xbf0ff8e1	-0.56239134
81	0xbf0b9f66	-0.545401
82	0xbf3a5bb9	-0.7279621
83	0x3e7ae6ab	0.24502055
84	0x3d303bc9	0.043025766
85	0x3e791981	0.24326135
86	0xbdc00f7b	-0.09377953
87	0xbf4bd71c	-0.79625106
88	0xbf51f196	-0.82009256
89	0x3cc3573b	0.023845306
90	0xbf153ed6	-0.58299005
91	0xbf5857ab	-0.8450877
92	0xbf726a4c	-0.94693446
93	0xbf6a79bc	-0.91592
94	0xbe00a246	-0.12561902
95	0xbf4798f2	-0.7796775
96	0xbf1bd4a0	-0.60871315
97	0xbf7af435	-0.9802888
98	0xbf7fd575	-0.99935085
99	0xbf199703	-0.5999605
100	0xbf431dbc	-0.76217246
101	0xbf40a63f	-0.7525367
102	0xbe7528ff	-0.2394142
103	0xbf15e86c	-0.5855777
104	0x3d3959b1	0.045251552
105	0xbf3a8047	-0.72851986
106	0x3ec44882	0.3833657
107	0xbc9b842a	-0.01898392
108	0xbebe051d	-0.37113276
109	0xbf265359	-0.6497093
110	0x3e0417cf	0.12899707
111	0xbd9d1e6e	-0.076718196
112	0xbdd9be77	-0.106320314
113	0xbf31d228	-0.694613
114	0xbf2f106d	-0.6838444
115	0x3f4d7704	0.8025973
116	0xbe78560a	-0.24251571
117	0xbf1fceae	-0.62424743
118	0xbed18b44	-0.40926564
119	0xbeeee143	-0.46656236
120	0x3da4d6b2	0.080487624
121	0xbf67fbab	-0.9061839
122	0xbec33830	-0.38128805
123	0xbd5b226a	-0.053499617
124	0xbf51acb9	-0.8190418
125	0xbf3a13c7	-0.7268643
126	0x3e50c223	0.20386557
127	0x3eed8d00	0.46396637
128	0x3c8a3d54	0.016874947
129	0x3d06522c	0.03279321
130	0x3df90ca9	0.12160618
131	0xbe95e9fe	-0.29280084
132	0xbe5e2602	-0.21694186
133	0xbed0ab09	-0.4075549
134	0xbea99e39	-0.33128527
135	0xbd993165	-0.074801244
136	0x3f14390c	0.57899547
137	0x3e83d315	0.2574698
138	0x3cdacfbf	0.02671039
139	0x3e117dba	0.14208117
140	0xbf0f73c5	-0.56036025
141	0x3e658d3a	0.22417155
142	0x3c176005	0.009239201
143	0x3e797a1d	0.24362989
144	0x3cb61adc	0.022229604
145	0xbe0c3264	-0.13691097
146	0x3f6b3f6a	0.9189364
147	0x3dde8b64	0.108664304
148	0xbe98e634	-0.2986313
149	0xbe13d767	-0.14437638
150	0xbe1d3dfa	-0.15355673
151	0xbee4d827	-0.4469616
152	0x3d80afd8	0.062835395
153	0x3e0c5a0a	0.13706222
154	0x3e2db9ed	0.16965456
155	0x3e0f0d38	0.13969886
156	0xbe4eadef	-0.20183538
157	0xbdd4a70d	-0.10383425
158	0x3e19a17f	0.15003012
159	0xbd9ac324	-0.07556751
160	0x3c1dacae	0.00962369
161	0xbe2279d5	-0.15866788
162	0xbe49ce2f	-0.19707559
163	0xbf05aacc	-0.5221374
164	0x3d1ef9de	0.03881251
165	0xbe235d58	-0.15953577
166	0x3ea0f2fc	0.31435382
167	0xbe95ff10	-0.2929616
168	0xbe75e815	-0.24014314
169	0x3cd02b63	0.025411313
170	0xbe2c03f6	-0.16798386
171	0xbe967060	-0.2938261
172	0x3e9e8e0d	0.3096775
173	0xbb937635	-0.0045001754
174	0xbdb4434c	-0.08801898
175	0x3f0eb3e9	0.5574327
176	0xbe25ed98	-0.16203916
177	0x3cca9cce	0.024732973
178	0xbd97099b	-0.07374879
179	0x3d8d90c0	0.069123745
180	0xbe37eb92	-0.17960957
181	0xbd89014a	-0.06689699
182	0xbe897817	-0.26849434
183	0xbd7d8337	-0.061892714
184	0x3e1428c8	0.14468682
185	0x3e5f959a	0.21834412
186	0xbe9eb53b	-0.30997643
187	0x3e2be73c	0.16787428
188	0xbc55e819	-0.013055825
189	0x3eb3dfbc	0.35131633
190	0xbdeb6301	-0.11493493
191	0xbe33fa23	-0.17575888
192	0x3e0e67c4	0.13906771
193	0xbe9a83bf	-0.3017864
194	0xbefe4c1a	-0.49667436
195	0xbee13ca5	-0.4399158
196	0xbe220042	-0.15820411
197	0xbe389c98	-0.18028486
198	0xbe8e5e4c	-0.27806318
199	0x3d825272	0.063633814
200	0xbe657966	-0.22409591
201	0x3f4d8582	0.8028184
202	0xbe847d8d	-0.25877038
203	0xbe194fcc	-0.14971846
204	0xbeb69db3	-0.3566719
205	0xbebc5d1e	-0.36789793
206	0xbef48859	-0.47760275
207	0xbe152178	-0.14563549
208	0xbdcaa3f9	-0.098945566
209	0xbe54c05a	-0.20776501
210	0xbe49dd07	-0.19713221
211	0x3dd86315	0.105657734
212	0x3e1ed553	0.15511064
213	0x3c10cf88	0.008838542
214	0xbe5e1bef	-0.21690343
215	0xbd6a00f2	-0.057129808
216	0x3f78e10d	0.972184
217	0x3d64e945	0.055886526
218	0xbd4673fa	-0.048450448
219	0x3ebf10a9	0.37317398
220	0xbebd8559	-0.370158
221	0xbde63383	-0.11240294
222	0xbe8f7b85	-0.28023925
223	0xbf016ef1	-0.5055991
224	0xbe537c6d	-0.20652933
225	0x3d2f0e74	0.042738393
226	0xbf010e11	-0.5041209
227	0xbe9eca6e	-0.31013817
228	0xbe7f5c2e	-0.24937508
229	0xbe42ce1b	-0.19023935
230	0xbf0235ef	-0.50863546
231	0xbe8dbbf2	-0.27682453
232	0x3ee6f34e	0.45107502
233	0xbd9cc782	-0.076552406
234	0x3d173da8	0.036924034
235	0xbd80f5e9	-0.06296904
236	0xbee75ff5	-0.45190397
237	0x3d4d49c2	0.05011917
238	0xbeec9b52	-0.4621225
239	0x3d905995	0.070483364
240	0xbeea014c	-0.45704114
241	0xbe073911	-0.13205363
242	0x3e245aa9	0.16050209
243	0x3eb654dc	0.35611618
244	0xbe0a6161	-0.1351371
245	0xbc22d378	-0.009938113
246	0x3f96fdba	1.1796181
247	0xbe5dcb77	-0.21659647
248	0x3c0c3e4a	0.008559773
249	0xbec147b7	-0.37750027
250	0xbecb7cdc	-0.39743698
251	0xbea41cb0	-0.32053137
252	0xbd03f085	-0.0322118
253	0x3d62dcb2	0.055386253
254	0x3e07091c	0.13187069
255	0x3f4f693b	0.81019944

bias_hh_l0 f4 [256]
0	0xbf1d1857	-0.61365265
1	0xbed95854	-0.42450202
2	0xbef5d6e9	-0.48015526
3	0xbd28e3b4	-0.04123278
4	0xbd8dbfa8	-0.06921321
5	0xbeee7137	-0.4657075
6	0xbdcb2a47	-0.09920173
7	0xbf08bf98	-0.5341735
8	0xbb53fc97	-0.00323466
9	0xbece9cc9	-0.40353993
10	0xbecd262d	-0.40068188
11	0xbde5286a	-0.11189349
12	0xbeab280f	-0.33429
13	0x3dc55762	0.096358076
14	0xbebf8733	-0.37407836
15	0xbe9f47f1	-0.31109574
16	0x3df9ed47	0.1220346
17	0xbeff21a3	-0.4983035
18	0xbf560095	-0.8359464
19	0xbe930a16	-0.28718632
20	0xbf0756b6	-0.52866685
21	0xbe472790	-0.19448686
22	0xbea2e811	-0.31817678
23	0x3d91dc48	0.071220934
24	0xbd361e8e	-0.044462733
25	0xbe8525b8	-0.2600534
26	0xbcad58c9	-0.0211605
27	0xbcf49c2e	-0.029859629
28	0xbc8e89d6	-0.01739971
29	0xbd749402	-0.059711464
30	0xbf11a234	-0.5688813
31	0xbe62c144	-0.22144037
32	0xbf0cb599	-0.54964596
33	0xbe5e0bbe	-0.21684167
34	0xbf1f7785	-0.6229175
35	0xbd951672	-0.07279672
36	0xbd3e0068	-0.046387106
37	0xbef7dd50	-0.48411036
38	0xbc514ba6	-0.012774384
39	0xbe006ed3	-0.12542276
40	0xbf3c95e8	-0.7366624
41	0xbda390e5	-0.07986621
42	0xbe05ead5	-0.13077863
43	0xbe90018f	-0.2812619
44	0xbf10685d	-0.56409246
45	0xbe2688a6	-0.16263065
46	0xbedf4694	-0.43608534
47	0xbd7bc0d7	-0.061463203
48	0xbedb4bda	-0.42831308
49	0x3d5661ee	0.052339487
50	0xbddac9e8	-0.10683042
51	0xbf489cf7	-0.7836451
52	0xbeb9125a	-0.36146814
53	0x3e87b35f	0.26504037
54	0xbf27cc3c	-0.6554601
55	0xbe8928c2	-0.26788908
56	0xbec37661	-0.38176253
57	0xbe98f4ff	-0.29874417
58	0xbdd6834c	-0.10474262
59	0xbe98fd89	-0.29880932
60	0xbe40f1b7	-0.18842207
61	0xbe845823	-0.25848493
62	0xbeeeb366	-0.46621245
63	0xbed48051	-0.41504148
64	0xbe94d7f4	-0.2907101
65	0x3d854a81	0.06508351
66	0xbeac8f0c	-0.33702886
67	0xbd7e3dcf	-0.062070664
68	0xbe98db56	-0.2985484
69	0xbed9a697	-0.4250991
70	0x3e198e89	0.14995779
71	0xbe82e998	-0.25568843
72	0xbd961a57	-0.07329243
73	0x3e81f5db	0.25382885
74	0xbf563cd1	-0.8368655
75	0xbe32caf9	-0.1746024
76	0xbf25efd4	-0.64819074
77	0xbf8736c2	-1.0563586
78	0xbf2c1198	-0.67214346
79	0xbf761842	-0.96130764
80	0xbf2982b1	-0.66215044
81	0xbf0ebf06	-0.5576023
82	0xbf3e5e6d	-0.7436283
83	0x3e545066	0.20733795
84	0xbb5c8c27	-0.0033652873
85	0x3e381855	0.17978032
86	0xbbb3ef12	-0.005491146
87	0xbf2840ca	-0.6572386
88	0xbf2c8773	-0.6739418
89	0x3d909194	0.07059017
90	0xbf25587d	-0.6458815
91	0xbf578134	-0.84181523
92	0xbf606c2b	-0.8766505
93	0xbf6b46fa	-0.91905177
94	0xbd9f0c2c	-0.077659935
95	0xbf0c545a	-0.5481621
96	0xbf27114e	-0.6526078
97	0xbf8e46d4	-1.1115365
98	0xbf793b6e	-0.9735631
99	0xbf4033eb	-0.7507922
100	0xbf2544eb	-0.64558285
101	0xbf4742c1	-0.77836233
102	0xbebb6d16	-0.36606663
103	0xbefaf22a	-0.49012882
104	0x3e114823	0.14187674
105	0xbf296ecd	-0.66184694
106	0x3ebf002d	0.37304822
107	0x3deac74e	0.114637956
108	0xbeae34d0	-0.34024668
109	0xbf163078	-0.5866771
110	0x3e3ce73e	0.18447587
111	0xbe5ef3c8	-0.21772683
112	0xbdcf8eac	-0.101346344
113	0xbf54c58b	-0.83113927
114	0xbf3d7455	-0.74005634
115	0x3f432be4	0.76238847
116	0xbe9c681d	-0.30548182
117	0xbf1c6f19	-0.6110702
118	0xbe7f748b	-0.24946801
119	0xbf30fccb	-0.6913573
120	0x3dfbddcb	0.12298163
121	0xbf558a69	-0.8341432
122	0xbe17e0f3	-0.14831905
123	0xbdfe5a0c	-0.12419519
124	0xbf505db9	-0.8139301
125	0xbf376cd2	-0.7165042
126	0x3e777b8d	0.24168225
127	0x3edcf275	0.4315373
128	0x3d702e74	0.05863805
129	0x3e7ef731	0.24898984
130	0x3da7360d	0.08164606
131	0xbea27c78	-0.31735587
132	0xbc87ed11	-0.016592534
133	0xbf1b9520	-0.6077442
134	0xbe868ee9	-0.26280907
135	0x3d3de584	0.04636146
136	0x3ecbfde0	0.3984213
137	0x3dcb5424	0.09928158
138	0x3da3edc9	0.08004338
139	0x3cd76b96	0.026296418
140	0xbec6fc07	-0.38864157
141	0x3ddf59df	0.109058134
142	0xbdde5fdd	-0.10858128
143	0x3d1f8d23	0.038952958
144	0x3d93f4d5	0.072244324
145	0xbd5996e5	-0.05312242
146	0x3f8156a3	1.0104564
147	0x3d5e1e0e	0.05422788
148	0xbe7e22cf	-0.24817966
149	0xbe5435fc	-0.20723718
150	0xbb4a63a3	-0.0030882142
151	0xbebf1a90	-0.37324953
152	0x3d878a63	0.06618192
153	0xbb8231e6	-0.0039732335
154	0xbca01807	-0.019542707
155	0x3e191d29	0.1495253
156	0xbdae1dbd	-0.08501766
157	0xbd89e8fc	-0.06733891
158	0x3d28db1e	0.04122459
159	0xbe29e447	-0.16590987
160	0xbe39d146	-0.18146238
161	0xbe317105	-0.1732827
162	0xbe6fab84	-0.23405272
163	0xbf32e74f	-0.698842
164	0xbda86972	-0.08223237
165	0xbe3b30cd	-0.18280335
166	0x3e8a4275	0.27003828
167	0xbea72672	-0.3264652
168	0xbebb3a67	-0.36567995
169	0x3d22306e	0.039596967
170	0xbd61876c	-0.05506079
171	0xbe9ac076	-0.3022496
172	0x3ea7f6ca	0.32805473
173	0xbc8c5186	-0.017128717
174	0xbdb17f0f	-0.08666813
175	0x3f0a2fc1	0.53979117
176	0xbdcc1904	-0.09965709
177	0xbc7d71b3	-0.015469003
178	0xbe1191a0	-0.14215708
179	0xbd13e253	-0.03610451
180	0xbe381c9e	-0.17979667
181	0x3de1219d	0.10992739
182	0xbed086ff	-0.40727994
183	0xbda174c7	-0.07883602
184	0x3e837c7e	0.25680918
185	0x3e707097	0.2348045
186	0xbe39f246	-0.18158826
187	0x3e912fe8	0.28356862
188	0x3dcbb181	0.099459656
189	0x3e122283	0.14270978
190	0xbe4c7902	-0.19968036
191	0xbc1d0adb	-0.009585108
192	0x3e94b976	0.29047745
193	0xbe8506c4	-0.25981724
194	0xbee41308	-0.4454577
195	0xbedb86c2	-0.4287625
196	0xbdbb8635	-0.09156457
197	0xbe36baca	-0.17844692
198	0xbe36c6c8	-0.17849267
199	0x3d05425c	0.03253399
200	0xbe86c18e	-0.26319546
201	0x3f514d83	0.817589
202	0xbe35a952	-0.17740372
203	0xbe044113	-0.12915449
204	0xbe3ecc33	-0.18632583
205	0xbefec9a7	-0.49763224
206	0xbec2f93c	-0.38080776
207	0xbe80cb30	-0.2515502
208	0xbdfeb2fd	-0.12436483
209	0xbe5882c2	-0.2114363
210	0xbd822472	-0.06354608
211	0x3e9c0782	0.30474478
212	0x3eb8bade	0.36080068
213	0xbdf8691c	-0.12129423
214	0xbe83fc27	-0.25778314
215	0xbe6c9dd2	-0.23107079
216	0x3f700a39	0.937656
217	0xbddade64	-0.10686949
218	0xbe1e251a	-0.1544384
219	0x3e9e9adb	0.3097752
220	0xbeda5a5f	-0.42647073
221	0xbde4a978	-0.11165136
222	0xbeaa9d1b	-0.33322987
223	0xbf0f4bfb	-0.5597531
224	0xbc861377	-0.016366703
225	0xbc92599c	-0.017864995
226	0xbf1bac5f	-0.6080989
227	0xbe48031d	-0.19532438
228	0xbe758b68	-0.2397896
229	0xbe218352	-0.15772751
230	0xbe95af44	-0.2923528
231	0xbe972989	-0.29523876
232	0x3ee323c9	0.4436324
233	0xbdb03a49	-0.08604867
234	0xbe2e9555	-0.17049153
235	0xbdb8e192	-0.09027399
236	0xbee5870a	-0.4482959
237	0x3e3abd6c	0.18236321
238	0xbeaaaab4	-0.3333336
239	0x3e424f0f	0.18975471
240	0xbefc4493	-0.49271068
241	0xbe556669	-0.20839848
242	0x3eb0aabf	0.3450527
243	0x3e95c4d2	0.29251724
244	0xbe26ca1f	-0.1628804
245	0x3dafe9da	0.085895255
246	0x3f98d080	1.1938629
247	0xbe76d4c4	-0.24104601
248	0xbdef8e43	-0.11697056
249	0xbeea23e3	-0.45730504
250	0xbefb66f9	-0.49102
251	0xbee407ad	-0.44537106
252	0xbd23b76e	-0.039969854
253	0x3de6ddf6	0.112728044
254	0x3e151a7e	0.14560887
255	0x3f570dfa	0.840057
